Prima India Diabeties Prediction using Pytorch/diabetes.pt (torch, 5447 bytes, 6 tensors)

weight f4 [20, 8]
000000 be 5e 46 3f b7 c4 3c bf 78 14 59 3e cd 20 b0 bd
       0.77488315 -0.73737663 0.21199214 -0.08600006
000010 9e 3c 2e bf b1 78 e2 3e 3e 2e 1c 3f 52 d6 1a 3e
       -0.68061244 0.44232705 0.6100806 0.15120819
000020 80 f9 00 c0 d1 29 cc 3d 99 b0 82 3c 00 a3 1d bf
       -2.0152283 0.09968913 0.015953349 -0.61576843
000030 f4 5f 59 3e c0 ae eb bd b9 74 11 3f 3e 97 9c 3e
       0.2122801 -0.1150794 0.5681873 0.3058414
000040 52 d6 45 be ab 33 d8 be c1 eb 74 be de e6 0e bf
       -0.19320038 -0.4222692 -0.23918058 -0.55821025
000050 3c d0 e6 bd 21 92 38 bf a0 6d 16 40 a1 2f 22 bf
       -0.11270186 -0.72097975 2.350441 -0.63353926
000060 ea 73 44 be 62 e1 9a 3c be 52 63 3e 05 b0 cb 3c
       -0.19184843 0.018906299 0.22199532 0.024864206
000070 04 92 f1 3b f9 a6 2c 3e 92 f3 57 c0 18 65 fd be
       0.0073721427 0.1686057 -3.3742414 -0.4949119
000080 a3 41 87 3e ec d1 d7 bd 83 49 f9 bd 95 cb fc bd
       0.26417264 -0.10538086 -0.121722244 -0.12343518
000090 cc 5b 3c be f9 10 7c bc 58 41 43 be 26 29 d2 3d
       -0.18394393 -0.015384906 -0.19067895 0.10261755
0000a0 ed 16 8c 3f 0a d8 50 3e 08 3a 33 be 40 90 32 3d
       1.0944496 0.20394912 -0.17502606 0.0435946
0000b0 4d fa a1 3d 80 22 eb be 38 6a df be 2c 16 20 be
       0.07909069 -0.4592476 -0.43635726 -0.15633458
0000c0 49 b1 11 3f 68 d9 02 bf e6 45 de bd 89 a7 28 bf
       0.5691114 -0.51112986 -0.10853176 -0.6588064
0000d0 6a e2 1a 3e 9f 30 00 3f f5 75 80 c0 32 60 aa 3e
       0.15125433 0.5007419 -4.014399 0.33276516
0000e0 47 27 e1 be 5d e3 bd 3e df 50 bd be d8 b6 3a 3e
       -0.4397528 0.37087527 -0.36975762 0.18233812
0000f0 e6 df 15 3e 60 5d 19 be cc 2c a0 3f 09 af 6e 3e
       0.14636192 -0.14977026 1.2513671 0.23308958
000100 7d 82 de 3e dc bf 0a bc 92 d3 e1 be 60 48 e9 3e
       0.4345893 -0.008468594 -0.44106728 0.4556303
000110 13 dd 8b 3d d9 0a 6d be e3 53 20 40 24 00 3c 3f
       0.06829276 -0.2314867 2.50512 0.73437715
000120 f7 21 8e be 04 e9 58 3e c6 73 13 bd 26 84 e3 be
       -0.27760288 0.21182638 -0.035999082 -0.4443676
000130 7e 35 09 3b cd 04 8e be e0 b7 22 bf 18 f2 ba 3e
       0.0020936425 -0.27738038 -0.6356182 0.36512828
000140 b9 68 43 bf 44 7f 22 bf 2f 07 91 3e de 1c 03 3e
       -0.7633167 -0.6347544 0.28325793 0.1280398
000150 d1 16 fd 3d 2f 6d e4 bd 5c fe 19 bf 90 95 fd be
       0.123578675 -0.111536376 -0.60153747 -0.4952817
000160 28 db 8a 3e 27 58 89 3e a4 5d 09 bf b9 37 a4 be
       0.27120328 0.26825067 -0.5365851 -0.32073763
000170 b1 5e 35 be 2e 0e 97 3e f3 b8 cf bf 42 cd 57 be
       -0.17711903 0.29503006 -1.6228317 -0.21074393
000180 27 27 60 bf 8b e8 16 3e 28 c8 44 be 00 39 a8 3e
       -0.8755974 0.14737146 -0.19216979 0.32855988
000190 79 a7 86 3e 9f 4e 07 be 1a 63 93 3f 46 e6 ba be
       0.26299646 -0.13213585 1.1514618 -0.3650381
0001a0 9e 87 ae 3d 38 a3 a8 be 8b 4e cc 3e d0 1e 1d 3f
       0.08521961 -0.32937026 0.39903674 0.6137514
0001b0 59 ed 3e be 36 57 63 be 08 df 30 c0 9a 33 96 3e
       -0.18645228 -0.22201237 -2.7636127 0.29336244
0001c0 24 74 05 3f b9 6a 36 be a1 d8 f1 bc 46 22 39 3f
       0.5213034 -0.17814149 -0.029522242 0.7231792
0001d0 e2 cf 9a 3e 8c 4b 09 bf 2c 25 20 3f 5d ac d8 be
       0.30236727 -0.536309 0.6255672 -0.42319003
0001e0 48 47 aa 3d 0c ef 7e 3e 62 e6 25 3e fb de be 3e
       0.08314377 0.24895877 0.16201165 0.37279496
0001f0 0d 8b 80 be eb 3e bc 3d d4 f0 1a 3f 7c ef bd 3e
       -0.25106087 0.09191688 0.60523725 0.37096775
000200 6a d8 87 bf 35 78 7a 3e 39 4e 00 3e 92 88 a5 3c
       -1.0612919 0.24459918 0.1252984 0.020206723
000210 8e e3 f3 bd 8b 1c a0 be 57 b3 8c be dc d6 80 3e
       -0.11908637 -0.31271777 -0.27480575 0.25163925
000220 02 13 da 3d 33 7c 7c be 4e e3 04 3d 95 ee 39 bd
       0.10648157 -0.24656753 0.032443337 -0.045393545
000230 97 8e 9c 3d 4d 18 0e be f7 7e 60 3e 45 cc 98 be
       0.07644384 -0.13876458 0.21923433 -0.29843345
000240 fc 73 8d 3f df d8 39 be 11 1f 9f 3e 02 39 2e bf
       1.1051021 -0.18149136 0.3107839 -0.68055737
000250 d3 fa 7e be 91 ab 25 3f ec a0 51 bf 96 ee a7 be
       -0.2490037 0.64714915 -0.8188617 -0.32799214
000260 8f a3 04 40 a1 6b 9b be ab 36 43 3e 01 1b de be
       2.0724828 -0.30355552 0.19063823 -0.43379977
000270 3f f8 76 3e 2e 41 8f bd ac 11 72 40 08 2f ab bd
       0.24118136 -0.06994854 3.7823286 -0.0835858

bias f4 [20]
000000 26 a1 58 be 62 c8 64 bf 64 75 5b bf b4 19 2f 40
       -0.21155223 -0.8936826 -0.85726 2.7359438
000010 31 83 a4 3d d9 66 dc bf ec 07 c5 3d d5 6f b7 3f
       0.08032835 -1.7218887 0.096206516 1.4331003
000020 ba 4d ac 3f e2 8e 16 40 c8 2c 29 3e 3f 4e 81 bf
       1.346122 2.3524709 0.16520989 -1.0102004
000030 b8 c5 2d c0 c9 d8 05 40 a5 03 b0 3f 37 88 ca bf
       -2.7151928 2.0913565 1.3751112 -1.582282
000040 51 04 aa 3f 14 22 62 bd 0e fa ed 3f 49 91 47 bf
       1.3282567 -0.05520828 1.8591936 -0.7795606

weight f4 [20, 20]
000000 72 4d ac be 02 6b 54 bd e7 d6 88 3e 10 ed 03 3e
       -0.33652836 -0.051859863 0.26726457 0.12883401
000010 61 55 38 be f3 34 92 bc a1 31 66 bf 6e 31 d5 3d
       -0.1800132 -0.017847514 -0.8991948 0.104098186
000020 e3 92 a1 bc bc 79 79 3e 9c 77 05 3f 56 db 77 bc
       -0.019723361 0.24362844 0.52135634 -0.015127977
000030 22 15 b6 bd e0 1c 3c 3e 46 dd ae 3d f0 a8 63 be
       -0.088907495 0.1837039 0.08538298 -0.22232413
000040 b5 8f 36 3e 1a 9e f4 bd e7 8c be 3b df d4 4d 3c
       0.17828257 -0.11944218 0.0058151367 0.012562959
000050 ae 2d 79 bd 5a f3 22 be 6e 37 58 3e ef 33 42 3f
       -0.06083458 -0.15913144 0.21114895 0.75860494
000060 e6 af c2 3d e9 82 68 3e 28 4d eb be 7d 54 bd 3d
       0.09506206 0.22706188 -0.45957303 0.092446305
000070 37 1d fa be c9 35 50 3e c3 6c 14 3e e0 0c 34 bd
       -0.48850414 0.20333017 0.14494614 -0.04395759
000080 27 62 c5 bd 06 3b af 3e 20 94 34 be e9 13 41 bc
       -0.09637862 0.3422472 -0.1763463 -0.011784532
000090 a0 fb 1e 3d 63 a7 1f be 93 99 af 3e 74 44 c6 3e
       0.038814187 -0.15591197 0.34296855 0.387241
0000a0 57 64 ad 3c bf be 6f 3d 66 1b 38 bd eb 00 27 3d
       0.02116601 0.05853152 -0.044948004 0.04077236
0000b0 11 27 50 3e 0c 70 1c 3b aa 6a cc 3d 9b f2 86 be
       0.20327403 0.0023870496 0.09981282 -0.26356968
0000c0 1f 93 d7 bd 1d cd 1d be 6a 63 17 3e a2 cc 42 3e
       -0.10526108 -0.15410276 0.14784017 0.19023374
0000d0 8d a5 83 bd 2d 15 26 3d 7b 1b b0 3d 9d 04 13 be
       -0.06428061 0.04054754 0.085989915 -0.14357229
0000e0 cf 7c 86 3c b2 0f 25 3e 2f c4 4e be 7e 74 59 be
       0.016416935 0.16119269 -0.20192026 -0.21235844
0000f0 86 d3 9f be 5e d9 07 3d 03 40 23 3d 86 b1 34 be
       -0.31216067 0.033166282 0.03985597 -0.17645845
000100 d2 fc 11 3e ed bf 8c be cb 75 e2 bd ac 22 31 be
       0.142566 -0.27490178 -0.110576235 -0.17298383
000110 74 da 81 3d 29 2b b0 be 79 9e 42 3e aa 36 a7 be
       0.06340495 -0.3440793 0.19005765 -0.32658893
000120 07 17 80 bd 11 0c 20 be 92 74 9a bd aa a9 bd 3d
       -0.06254392 -0.15629603 -0.07541765 0.092608765
000130 d7 37 c6 bc 51 e3 42 3d d7 4b 75 3d be 3d 8e 3d
       -0.024196548 0.047580067 0.05988678 0.0694537
000140 40 41 0e 3f 61 0c 15 be 5d bb 86 bd c1 b9 fa bd
       0.55568314 -0.14555503 -0.065787055 -0.12242461
000150 20 08 3b be 8d 77 85 be 00 f0 60 3d 81 10 01 3d
       -0.18264818 -0.26067773 0.05491638 0.03150988
000160 bb 4d ef bd 3b e8 d5 bd 82 29 5f bf 7c 47 2f 3d
       -0.11684748 -0.10444685 -0.8717271 0.042792782
000170 54 7e 82 be 1c 91 66 3e 57 b8 34 3e 90 73 54 be
       -0.25487006 0.22516292 0.17648445 -0.20747209
000180 08 fb b0 bd 34 f3 39 bc ad 62 63 3e 35 23 8e 3e
       -0.086416304 -0.011349488 0.2220561 0.27761236
000190 e2 56 0b 3f 1d e3 ef 3c e7 dd 95 be f8 6d 90 be
       0.5442945 0.0292831 -0.2927086 -0.282089
0001a0 c3 e0 bd bb 8d 64 79 3e b5 84 54 3f a1 b3 60 3e
       -0.005794616 0.24354763 0.83014995 0.21943523
0001b0 92 d0 46 3e f4 32 ef 3c e3 67 c8 be bc 44 15 3e
       0.19415501 0.029199101 -0.3914176 0.14577001
0001c0 43 05 8b bd 5b 1b d5 3e 1b ab fb bd 72 11 6c 3e
       -0.06788113 0.41622433 -0.12288495 0.2305353
0001d0 b8 52 51 3e 85 7a 26 be ef b4 8b be 9a a9 6a 3e
       0.20441711 -0.16257675 -0.2728648 0.2291626
0001e0 e2 2f 84 be da 32 04 3d fe c5 1a 3e 65 ee cf be
       -0.25817782 0.03227506 0.1511459 -0.40611568
0001f0 b2 a5 d8 3d bc c6 c0 3d 89 ba 8c bf 7d 11 02 3e
       0.10578479 0.094129056 -1.0994426 0.12701984
000200 7d a6 ae 3e 6f f6 8c 3d 03 b4 d9 bd f3 4f 9d be
       0.34111395 0.06882941 -0.10630038 -0.3072506
000210 01 23 bc be 57 f1 bc 3e 23 d7 d5 3d 2c f0 23 be
       -0.36745456 0.36902878 0.10441425 -0.16009587
000220 3d 6f a4 3e ce de 1e 3e 31 4e d1 3e 4c b8 33 3f
       0.32116118 0.1551468 0.40879968 0.7020309
000230 c8 50 59 3d a8 aa 29 be e5 b8 f5 bc 43 56 a7 3f
       0.053055555 -0.16569006 -0.029995391 1.30732
000240 be f5 fb bd 70 a1 b8 bd 37 50 9b be f2 60 c1 be
       -0.12302731 -0.09015167 -0.30334637 -0.37769276
000250 fa ae d8 3d 66 5b aa 3d 28 0e 11 3f e2 52 e5 bc
       0.10580249 0.08318214 0.56662226 -0.027993623
000260 d6 c6 b2 c0 84 bb cd bf ad 63 88 be 87 1e 2f 3d
       -5.586772 -1.607285 -0.26638547 0.042753723
000270 48 ae d2 bd d0 23 d3 bd 75 26 2e bf 12 47 11 3e
       -0.10287148 -0.10309565 -0.6802743 0.14187267
000280 0f 21 e5 bd 50 6d 87 be 12 64 30 bc 77 df ad 3f
       -0.11187946 -0.26450586 -0.010766046 1.3583821
000290 28 06 3c be e5 f9 d9 3d d7 9f 39 bf e4 fe 05 bf
       -0.18361723 0.10643367 -0.7250952 -0.5234206
0002a0 8c 72 a5 be d8 c5 a2 be 4c f1 4e 3f 9d 8e a1 be
       -0.32313955 -0.31791568 0.8083694 -0.31554118
0002b0 ba 8a 0c bf e8 6b 19 3e da a2 27 3c bb 3b a3 bd
       -0.5489918 0.14982569 0.010231698 -0.07970377
0002c0 91 73 61 be b3 1c 52 bd ab c5 19 bd ac 8f 48 be
       -0.22016741 -0.0512969 -0.037542026 -0.19586056
0002d0 8a 33 02 be 01 0e 8a bc 2f 16 d1 bd c0 00 49 3d
       -0.12714973 -0.01685238 -0.10209309 0.04907298
0002e0 8f 6c 36 be 89 82 9b bd 0c 88 64 bf 8d 3e 86 be
       -0.1781485 -0.07593257 -0.8927009 -0.26219597
0002f0 79 1b 12 bf d3 e9 4f bd 05 8a ab 3e a8 07 e3 3d
       -0.5707317 -0.0507601 0.33503738 0.11085445
000300 07 10 10 3d f4 f3 36 3e b7 c3 26 be 69 8c 64 bd
       0.035171535 0.17866498 -0.16285597 -0.055797968
000310 69 c9 74 be 47 eb 4a 3e cc 51 49 bd f4 30 70 be
       -0.23904957 0.19816314 -0.049150273 -0.23456174
000320 09 79 cb be 61 2e aa bd 19 3a 3c be 4f df 0f be
       -0.3974078 -0.08309627 -0.18381537 -0.14050029
000330 97 91 31 be 59 12 eb bd a1 7b 08 c0 f2 fe 84 be
       -0.17340694 -0.11478109 -2.1325457 -0.25975758
000340 2a 2f 35 bd b1 d6 dd 3d a8 0f e6 bd 88 10 a9 bd
       -0.044234432 0.10831965 -0.11233455 -0.08255106
000350 76 f7 15 3d 87 fc a0 3e 03 15 4c 3e c6 61 e6 bd
       0.03661295 0.31442663 0.1992989 -0.112491176
000360 ff 6c 02 be bd ec 44 be 29 ab 49 3e df bc d5 3d
       -0.12736891 -0.19230933 0.19694199 0.10436415
000370 13 77 9e bd 40 1c 92 3d 49 8a 8c 3e 14 ce 93 3e
       -0.07737555 0.071342945 0.27449253 0.28868163
000380 23 17 34 3e 67 73 30 be 5c 90 16 bf db a7 69 3e
       0.17586951 -0.17231523 -0.58814025 0.22817938
000390 7b 71 02 be 02 b7 5e 3e 05 71 21 bf 55 28 83 3f
       -0.12738602 0.217495 -0.6306308 1.0246683
0003a0 f0 a4 15 bc bd 6f 42 3f 0c bb 43 3d d4 43 04 be
       -0.009133562 0.7595175 0.047785804 -0.129165
0003b0 24 80 e8 3d 14 f3 22 be fd ce c3 bf d6 64 54 be
       0.11352566 -0.1591304 -1.5297543 -0.20741591
0003c0 6d 6c 08 bc 34 cb 68 3c 79 cb 54 be 7f 2f a9 be
       -0.008326632 0.014208604 -0.20780744 -0.3304405
0003d0 ea 27 30 be d7 3b 38 3e 4c 2c 6a 3f 32 e7 53 3e
       -0.17202726 0.17991577 0.9147384 0.20693663
0003e0 ef 49 45 3d e8 9a a0 bb fe c1 34 3f 32 69 3f 3e
       0.04816621 -0.0049012788 0.7060851 0.18692473
0003f0 f1 be 69 3e df 7d d3 3e a6 0d 78 3d 1f 5b 85 3e
       0.22826745 0.4130697 0.06055989 0.26046082

bias f4 [20]
000000 10 ef 97 3f ff 4b ae 3f 62 b7 b1 bd 3f 59 35 be
       1.1869831 1.3616942 -0.086775556 -0.17709826
000010 89 cb 33 3d a4 e8 86 bf 3b 59 74 3f b2 6d 71 3e
       0.043895278 -1.0539746 0.95448655 0.23577002
000020 40 da b6 3e 39 6e 08 be ca 2c 80 bd e1 aa c1 3f
       0.35713387 -0.13323297 -0.06258543 1.5130273
000030 4c 53 8f bf e7 33 27 be 1f 70 4a 3e ab 6e 7c bf
       -1.1197295 -0.16328393 0.19769333 -0.98606366
000040 eb 71 da bf fe 3f 16 be 57 5c f3 3d 62 46 d6 3f
       -1.7066015 -0.14672849 0.11882847 1.6740229

weight f4 [2, 20]
000000 5f d0 d4 3d 5d 79 f9 3e a2 98 14 be 0a a1 14 3e
       0.10391306 0.48725405 -0.1451135 0.14514557
000010 87 78 b1 be fc 41 ba bd 83 24 34 3e 03 ed 17 3f
       -0.34662268 -0.09094617 0.17592053 0.59346026
000020 cb 9e d4 3e c6 8e 8d 3e 4a f3 83 3e cc 47 2d 3e
       0.415274 0.2764799 0.25771552 0.1692192
000030 fb 02 af be c5 fa a9 ba c6 e6 a6 3e 77 70 04 bf
       -0.3418196 -0.0012968412 0.3259794 -0.5173411
000040 4e 83 f9 be 5c e6 7b bd 7e 34 68 3d b5 df 37 3f
       -0.4873299 -0.061498985 0.056690685 0.71825725
000050 cf 87 c2 bd b9 b8 ec bd 50 e5 c4 bd f3 18 67 3d
       -0.0949856 -0.115586706 -0.096140504 0.056420278
000060 90 ff 04 3d fb b8 9e 3e 6d 2d af be dc 07 c9 be
       0.032470286 0.31000504 -0.34214345 -0.3926381
000070 f3 d0 3a 3b 05 47 0a bf 8e 94 9e be b9 13 64 be
       0.002850589 -0.5401462 -0.30972713 -0.22273149
000080 4e 3a 4b 3e 33 0f 5c 3d 7e c8 6c be 51 71 29 3f
       0.1984646 0.053725433 -0.23123357 0.6618853
000090 7c 89 1e 3f 88 fc be 3d cc f9 62 3d c6 3d 23 bf
       0.61928535 0.0932551 0.055414006 -0.63766134

bias f4 [2]
000000 ef 99 89 3f 20 c6 b5 bf
       1.0750102 -1.4201088
